…
conclusions may not be gen-erally applicable. Nevertheless, these visualizations indicate that failures of MPAIL2 are often caused by collapsed plans at the beginning of the episode. Rarely does MPAIL2 fail while in the middle of the task. Rather, when they occur, failures often find the agent moving cyclically or back-and-forth. 18 [INFO] Planner initialized. Total number of params: 7114494 [INFO] Encoder: 2327744 [INFO] Dynamics: 793088 [INFO] Reward: 787968 [INFO] Value: 2649605 [INFO] Sampling: 556088 Planner( (encoder): MultiCoder( (coders): ModuleList( (0): Coder( (coder): Sequential( (0): Linear(in_features=8, out_features=256, bias=True) (1): SiLU() (2): Linear(in_features=256, out_features=512, bias=True) (3): LayerNorm((512,), eps=1e-05, elementwise_affine=True) (4): SiLU() ))(1-2): 2 x CNNCoder( (coder): Sequential( (0): Conv2d(3, 32, kernel_size=(3, 3), stride=(2, 2)) (1): SiLU() (2): Conv2d(32, 32, kernel_size=(3, 3), stride=(2, 2)) (3): SiLU() (4): Conv2d(32, 32, kernel_size=(3, 3), stride=(2, 2)) (5): SiLU() (6): Conv2d(32, 32, kernel_size=(3, 3), stride=(1, 1)) (7): SiLU() (8): Flatten(start_dim=1, end_dim=-1) (9): Linear(in_features=800, out_features=512, bias=True) (10): SiLU() )))(latent_coder): Sequential( (0): Linear(in_features=1536, out_features=512, bias=True) (1): LayerNorm((512,), eps=1e-05, elementwise_affine=True) (2): SiLU() (3): Linear(in_features=512, out_features=512, bias=True) (4): LayerNorm((512,), eps=1e-05, elementwise_affine=True) (5): SiLU() (6): Linear(in_features=512, out_features=512, bias=True) (7): LayerNorm((512,), eps=1e-05, elementwise_affine=True) ))(dynamics): Dynamics( (model): Sequential( (0): Linear(in_features=516, out_features=512, bias=True) (1): LayerNorm((512,), eps=1e-05, elementwise_affine=True) (2): SiLU() (3): Linear(in_features=512, out_features=512, bias=True) (4): LayerNorm((512,), eps=1e-05, elementwise_affine=True) (5): SiLU() (6): Linear(in_features=512, out_features=512, bias=True) (7): LayerNorm((512,), eps=1e-05, elementwise_affine=True) ))(reward): Reward( (model): Sequential( (0): Linear(in_features=1024, out_features=512, bias=True) (1): SiLU() (2): Linear(in_features=512, out_features=512, bias=True) (3): SiLU() (4): Linear(in_features=512, out_features=1, bias=False) ))(value): EnsembleValue( (Qs): ModuleList( (0-1): 2 x Q( (model): Sequential( (0): Linear(in_features=516, out_features=512, bias=True) (1): LayerNorm((512,), eps=1e-05, elementwise_affine=True) (2): SiLU() (3): Linear(in_features=512, out_features=512, bias=True) (4): LayerNorm((512,), eps=1e-05, elementwise_affine=True) (5): SiLU() (6): Linear(in_features=512, out_features=1, bias=True) ))))(sampling): PolicySampling( (policy): PolicyNetwork( (model): Sequential( (0): Linear(in_features=512, out_features=512, bias=True) (1): LayerNorm((512,), eps=1e-05, elementwise_affine=True) (2): SiLU() (3): Linear(in_features=512, out_features=512, bias=True) (4): LayerNorm((512,), eps=1e-05, elementwise_affine=True) (5): SiLU() (6): Linear(in_features=512, out_features=56, bias=True) ))))

Fig. 14. PyTorch [36] 7.1M Model Architecture for observation space with two RGB images and proprioception (i.e. Push Block and Pick-and-Place). 

19 Algorithm 2 MPAIL2 (P LANNING )

Require: 

Number of trajectories to sample N ;Proportion of trajectories sampled from policy M/N ;Number of elite samples K

Planning horizon H;Number of optimization iterations J
…
